…
TEST: enc_col_52 - [0 3 2 1]
2025-05-31 19:34:37,868 - INFO - TRAIN: enc_col_53 - [0 3 1 2]
TEST: enc_col_53 - [0 1 3 2]
2025-05-31 19:34:37,970 - INFO - TRAIN: enc_col_54 - [5 8 2 7 9 1 4 6 0 3]
TEST: enc_col_54 - [5 8 2 9 7 6 1 3 0]
2025-05-31 19:34:38,071 - INFO - TRAIN: enc_col_55 - [0 3 1 2]
TEST: enc_col_55 - [0 1 3 2]
2025-05-31 19:34:38,173 - INFO - TRAIN: enc_col_56 - [19 16 10 14  7  1  3  2  8  0 18 15 17  5 11  6  4 13  9 12]
TEST: enc_col_56 - [ 3 16  5  1  2 11 15  9 17  8 10 14  6 18 12 13 19  0  7  4]
2025-05-31 19:34:38,835 - INFO - 
model:
GRUModel(
  (embedding): ModuleList(
    (0): Embedding(2, 2, padding_idx=0)
    (1): Embedding(8, 5, padding_idx=0)
    (2): Embedding(2, 2, padding_idx=0)
    (3): Embedding(18, 8, padding_idx=0)
    (4): Embedding(7, 5, padding_idx=0)
    (5-6): 2 x Embedding(2, 2, padding_idx=0)
    (7): Embedding(5, 4, padding_idx=0)
    (8): Embedding(16, 8, padding_idx=0)
    (9-11): 3 x Embedding(2, 2, padding_idx=0)
    (12): Embedding(20, 9, padding_idx=0)
    (13-14): 2 x Embedding(4, 3, padding_idx=0)
    (15): Embedding(20, 9, padding_idx=0)
    (16): Embedding(2, 2, padding_idx=0)
    (17): Embedding(4, 3, padding_idx=0)
    (18): Embedding(14, 7, padding_idx=0)
    (19): Embedding(2, 2, padding_idx=0)
    (20): Embedding(6, 4, padding_idx=0)
    (21): Embedding(4, 3, padding_idx=0)
    (22): Embedding(7, 5, padding_idx=0)
    (23): Embedding(20, 9, padding_idx=0)
    (24): Embedding(4, 3, padding_idx=0)
    (25): Embedding(6, 4, padding_idx=0)
    (26): Embedding(17, 8, padding_idx=0)
    (27): Embedding(2, 2, padding_idx=0)
    (28): Embedding(8, 5, padding_idx=0)
    (29): Embedding(4, 3, padding_idx=0)
    (30-31): 2 x Embedding(20, 9, padding_idx=0)
    (32): Embedding(4, 3, padding_idx=0)
    (33): Embedding(18, 8, padding_idx=0)
    (34): Embedding(17, 8, padding_idx=0)
    (35-36): 2 x Embedding(4, 3, padding_idx=0)
    (37): Embedding(10, 6, padding_idx=0)
    (38): Embedding(4, 3, padding_idx=0)
    (39): Embedding(20, 9, padding_idx=0)
  )
  (gru): GRU(189, 512, num_layers=3, batch_first=True)
  (fc): Linear(in_features=512, out_features=256, bias=True)
  (bn1): BatchNorm1d(256, eps=1e-05, momentum=0.1, affine=True, track_running_stats=True)
  (dropout): Dropout(p=0.1, inplace=False)
  (relu): ReLU()
  (fc2): Linear(in_features=256, out_features=128, bias=True)
  (bn2): BatchNorm1d(128, eps=1e-05, momentum=0.1, affine=True, track_running_stats=True)
  (dropout2): Dropout(p=0.1, inplace=False)
  (fc_out): Linear(in_features=128, out_features=1, bias=True)
)

2025-05-31 19:34:38,835 - INFO - 
---------- Training ----------

2025-05-31 19:34:38,835 - INFO - path2dir_save_models: ./models/train_model_31-05-2025_19-34-26
2025-05-31 20:04:32,363 - INFO - epoch: 0. Trainig loss: 1.088498830795288. MAX-ROC: 0. ROC-AUC: 0.7446936471744671
2025-05-31 20:04:32,375 - INFO - model with ROC: 0.7446936471744671 SAVE PATH: ./models/train_model_31-05-2025_19-34-26/training_31-05-2025_20-04-32_epoch_0_999/model_roc_0.74.pt
…
